…
,3)，代表卷积核的大小是<code>3*3</code>的，这与李老师课堂上的示例一致；</p><p>第三个参数代表我们选择激活函数为<code>relu</code>；</p><p>第四个参数是只有在临近输入层的卷积层才会有的，代表输入向量的维度。这里的图像是彩色的，不但有长宽，还有通道数(channels)为3，因此输入向量的大小为(32,32,3)。</p><p>在搭建完第一层Conv2D后，紧接着会搭建最大池化层，池化层filter为<code>2*2</code>。后续的操作也是重复的，都是一层卷积、一层池化。到目前为止，模型结构如下：</p><pre><code class="lang-py">model.summary()</code></pre><pre><code>Model: &quot;sequential&quot;_________________________________________________________________ Layer (type)                Output Shape              Param #   ================================================================= conv2d (Conv2D)             (None, 30, 30, 32)        896        max_pooling2d (MaxPooling2D  (None, 15, 15, 32)       0          )                                                                conv2d_1 (Conv2D)           (None, 13, 13, 64)        18496      max_pooling2d_1 (MaxPooling  (None, 6, 6, 64)         0          2D)                                                              conv2d_2 (Conv2D)           (None, 4, 4, 64)          36928     =================================================================Total params: 56,320Trainable params: 56,320Non-trainable params: 0_________________________________________________________________</code></pre><p>我们可以看到，第一层Conv2D的输出向量的大小变成了(30,30,32)，这里32是我们之前定义的卷积核个数，<code>30*30</code>则是特征图大小。每次卷积操作都会导致宽度和高度的收缩。</p><p>参数量为896，这是如何计算来的呢？首先每个卷积核是<code>3*3</code>，同时图像有3个channel，因此每个卷积核的参数个数为<code>3*3*3</code>，再加上一个偏置量，就是28个参数。一共32个卷积核，最后的参数量即为<code>[(height * width * channel) + 1] * filter</code>。</p><p>卷积层只是特征提取器，最后为了完成分类操作，我们需要在卷积层后面拼接全连接层。不用太多，几层就够了：</p><pre><code class="lang-py">model.add(layers.Flatten())model.add(layers.Dense(64, activation=&#39;relu&#39;))model.add(layers.Dense(10))model.summary()</code></pre><pre><code>Model: &quot;sequential&quot;_________________________________________________________________ Layer (type)                Output Shape              Param #   ================================================================= conv2d (Conv2D)             (None, 30, 30, 32)        896        max_pooling2d (MaxPooling2D  (None, 15, 15, 32)       0          )                                                                conv2d_1 (Conv2D)           (None, 13, 13, 64)        18496      max_pooling2d_1 (MaxPooling  (None, 6, 6, 64)         0          2D)                                                              conv2d_2 (Conv2D)           (None, 4, 4, 64)          36928      flatten (Flatten)           (None, 1024)              0          dense (Dense)               (None, 64)                65600      dense_1 (Dense)             (None, 10)                650       =================================================================Total params: 122,570Trainable params: 122,570Non-trainable params: 0_________________________________________________________________</code></pre><p>卷积层的输出在输入两个 Dense 层之前需要被展平（Flatten）为形状为 (1024) 的向量。</p><p>仅添加了两层全连接层，参数量就多了65600+650个，可以看到全连接层真的比CNN多很多冗余参数。</p><p>最后编译并训练一下：</p><pre><code class="lang-py">model.compile(optimize
…
