…
,3)，代表卷积核的大小是<code>3*3</code>的，这与李老师课堂上的示例一致；</p><p>第三个参数代表我们选择激活函数为<code>relu</code>；</p><p>第四个参数是只有在临近输入层的卷积层才会有的，代表输入向量的维度。这里的图像是彩色的，不但有长宽，还有通道数(channels)为3，因此输入向量的大小为(32,32,3)。</p><p>在搭建完第一层Conv2D后，紧接着会搭建最大池化层，池化层filter为<code>2*2</code>。后续的操作也是重复的，都是一层卷积、一层池化。到目前为止，模型结构如下：</p><pre><code class="lang-py">model.summary()</code></pre><pre><code>Model: &quot;sequential&quot;_________________________________________________________________ Layer (type)                Output Shape              Param #   ================================================================= conv2d (Conv2D)             (None, 30, 30, 32)        896        max_pooling2d (MaxPooling2D  (None, 15, 15, 32)       0          )                                                                conv2d_1 (Conv2D)           (None, 13, 13, 64)        18496      max_pooling2d_1 (MaxPooling  (None, 6, 6, 64)         0          2D)                                                              conv2d_2 (Conv2D)           (None, 4, 4, 64)          36928     =================================================================Total params: 56,320Trainable params: 56,320Non-trainable params: 0_________________________________________________________________</code></pre><p>我们可以看到，第一层Conv2D的输出向量的大小变成了(30,30,32)，这里32是我们之前定义的卷积核个数，<code>30*30</code>则是特征图大小。每次卷积操作都会导致宽度和高度的收缩。</p><p>参数量为896，这是如何计算来的呢？首先每个卷积核是<code>3*3</code>，同时图像有3个channel，因此每个卷积核的参数个数为<code>3*3*3</code>，再加上一个偏置量，就是28个参数。一共32个卷积核，最后的参数量即为<code>[(height * width * channel) + 1] * filter</code>。</p><p>卷积层只是特征提取器，最后为了完成分类操作，我们需要在卷积层后面拼接全连接层。不用太多，几层就够了：</p><pre><code class="lang-py">model.add(layers.Flatten())model.add(layers.Dense(64, activation=&#39;relu&#39;))model.add(layers.Dense(10))model.summary()</code></pre><pre><code>Model: &quot;sequential&quot;_________________________________________________________________ Layer (type)                Output Shape              Param #   ================================================================= conv2d (Conv2D)             (None, 30, 30, 32)        896        max_pooling2d (MaxPooling2D  (None, 15, 15, 32)       0          )                                                                conv2d_1 (Conv2D)           (None, 13, 13, 64)        18496      max_pooling2d_1 (MaxPooling  (None, 6, 6, 64)         0          2D)                                                              conv2d_2 (Conv2D)           (None, 4, 4, 64)          36928      flatten (Flatten)           (None, 1024)              0          dense (Dense)               (None, 64)                65600      dense_1 (Dense)             (None, 10)                650       =================================================================Total params: 122,570Trainable params: 122,570Non-trainable params: 0_________________________________________________________________</code></pre><p>卷积层的输出在输入两个 Dense 层之前需要被展平（Flatten）为形状为 (1024) 的向量。</p><p>仅添加了两层全连接层，参数量就多了65600+650个，可以看到全连接层真的比CNN多很多冗余参数。</p><p>最后编译并训练一下：</p><pre><code class="lang-py">model.compile(optimize
…
ef="https://chenk.tech/posts/eb79fc5f.html">https://chenk.tech/posts/eb79fc5f.html</a></p><pre><code class="lang-python">from sklearn.feature_extraction.text import HashingVectorizerhvec = HashingVectorizer(n_features=10000)hvec.fit(corpus)h_words = hvec.transform(corpus)print(&quot;h_words: &#123;&#125;&quot;.format(repr(h_words)))h_words: &lt;10000x10000 sparse matrix of type &#39;&lt;class &#39;numpy.float64&#39;&gt;&#39;    with 2739957 stored elements in Compressed Sparse Row format&gt;</code></pre><p>我选取了10000个样本，将其映射到10000个特征的Hash向量中。</p><pre><code class="lang-python">print(h_words[0]) (0, 0)    -0.009886463280261834  (0, 6)    -0.04943231640130917  (0, 9)    0.03954585312104734  (0, 26)    -0.04943231640130917  (0, 42)    0.01977292656052367  (0, 70)    0.01977292656052367  (0, 74)    -0.12852402264340385  (0, 94)    0.009886463280261834  (0, 99)    0.01977292656052367  (0, 109)    -0.009886463280261834  :    :  (0, 9642)    -0.009886463280261834  (0, 9650)    0.01977292656052367  (0, 9653)    0.009886463280261834  (0, 9659)    -0.04943231640130917  (0, 9715)    -0.009886463280261834  (0, 9721)    0.009886463280261834  (0, 9729)    -0.009886463280261834  (0, 9741)    0.009886463280261834  (0, 9765)    -0.01977292656052367  (0, 9781)    0.01977292656052367  (0, 9821)    -0.009886463280261834  (0, 9862)    0.009886463280261834  (0, 9887)    -0.009886463280261834  (0, 9932)    0.009886463280261834</code></pre><p>输出的含义，前面的元组代表了该特征在词袋中的位置，后面的数值代表了对应的Hash值。</p><h2 id="TF-IDF"><a href="#TF-IDF" class="headerlink" title="TF-IDF"></a>TF-IDF</h2><p>TF-IDF（Term Frequency-inverse Document Frequency）是一种针对关键词的统计分析方法，用于评估一个词对一个文件集或者一个语料库的重要程度。</p><pre><code class="lang-python">from sklearn.feature_extraction.text import TfidfVectorizertvec = TfidfVectorizer()tvec.fit(corpus)feature_
…
e=display">\operatorname{tfidf}(w, d)=\operatorname{tf} \log \left(\frac{N+1}{N_{w}+1}\right)+1</script><p>式中，tf为词频，Term Frequency, 表示一个词在一个文档中的出现频率。该频率最后要除以该文档的长度，用以归一化。</p><p>式中，$N$为总文档数，$N_w$为带有单词$w$的文档数。由于分子比分母大，所以该 $\log$ 值必不可能小于零。</p><pre><code class="lang-python">from sklearn.feature_extraction.text import TfidfVectorizercorpus=[&quot;I come to China to travel&quot;,&quot;This is a car polupar in China&quot;,&quot;I love tea and Apple &quot;,&quot;The work is to write some papers in science&quot;]tfidf = TfidfVectorizer()vector = tfidf.fit_transform(corpus)print(vector)#---------------#(0, 16)    0.4424621378947393(0, 3)    0.348842231691988(0, 15)    0.697684463383976(0, 4)    0.4424621378947393(1, 5)    0.3574550433419527(1, 9)    0.45338639737285463(1, 2)    0.45338639737285463(1, 6)    0.3574550433419527(1, 14)    0.45338639737285463(1, 3)    0.3574550433419527(2, 1)    0.5(2, 0)    0.5(2, 12)    0.5(2, 7)    0.5(3, 10)    0.3565798233381452(3, 8)    0.3565798233381452(3, 11)    0.3565798233381452(3, 18)    0.3565798233381452(3, 17)    0.3565798233381452(3, 13)    0.3565798233381452(3, 5)    0.2811316284405006(3, 6)    0.2811316284405006(3, 15)    0.2811316284405006</code></pre><p>返回值什么意思呢？(0, 16)代表第0个文档，第一个单词在单词表（词袋）中的位置是第16个，该单词的tf-idf值为0.44246213；第二个单词在词袋中第3个位置……</p><p>显然这是个经过压缩的系数矩阵，每一行的元组表明该元素在稀疏矩阵中的位置，其值为右边的tf-idf值，代表一个单词。可以通过<code>.toarray()</code>方法令其恢复到系数矩阵状态。</p><pre><code class="lang-python">print(vector.toarray().shape)print(len(vector.toarray()))print(type(vector.toarray()))print(vector.toarray())#-----------------------------#(
…
rds = [list(jieba.cut(sent0)) for sent0 in sentences]document = [&quot; &quot;.join(sent0) for sent0 in sent_words]print(document)</code></pre><h3 id="第二步：建模"><a href="#第二步：建模" class="headerlink" title="第二步：建模"></a>第二步：建模</h3><pre><code>理论上，现在得到的document的格式已经可以直接拿来训练了。让我们跑一下模型试试。</code></pre><pre><code class="lang-python">tfidf_model = TfidfVectorizer().fit(document)print(tfidf_model.vocabulary_)# &#123;&#39;一条&#39;: 1, &#39;天狗&#39;: 4, &#39;日来&#39;: 5, &#39;一切&#39;: 0, &#39;星球&#39;: 6, &#39;全宇宙&#39;: 3, &#39;便是&#39;: 2&#125;sparse_result = tfidf_model.transform(document)print(sparse_result)# (0, 4)    0.707106781187# (0, 1)    0.707106781187# (2, 5)    1.0# (3, 6)    0.707106781187# (3, 0)    0.707106781187# (4, 3)    1.0# (5, 2)    1.0</code></pre><h3 id="第三步：参数"><a href="#第三步：参数" class="headerlink" title="第三步：参数"></a>第三步：参数</h3><pre><code>查了一些资料以后，发现单字的问题是token_pattern这个参数搞的鬼。它的默认值只匹配长度≥2的单词，就像其实开头的例子中的&#39;I&#39;也被忽略了一样，一般来说，长度为1的单词在英文中一般是无足轻重的，但在中文里，就可能有一些很重要的单字词，所以修改如下：</code></pre><pre><code class="lang-python">tfidf_model2 = TfidfVectorizer(token_pattern=r&quot;(?u)\b\w+\b&quot;).fit(document)print(tfidf_model2.vocabula
…
